model.pth (torch, 309492 bytes, 6 tensors)

fc_hand.weight f4 [768, 42]
000000 dc a0 9e bd 5d 9e e4 bd 46 35 05 3e 7e dc 50 3d
       -0.07745525 -0.11163018 0.13008603 0.050991528
000010 be a0 0d 3e 20 ae 17 3e e7 97 72 3d 1a 04 12 be
       0.1383085 0.14812517 0.059226897 -0.14259377
000020 38 6d 2d bd fe 8f c2 bd 1e 2b 48 bd 47 be bf bd
       -0.042340487 -0.095001206 -0.048869245 -0.093624644
000030 c3 f7 d5 bd 04 f5 11 be ae 9e 5e 3d 47 c4 ed 3d
       -0.104476474 -0.14253622 0.054350547 0.116097026
000040 bc 15 00 be c8 2e 0e 3e 3f 81 74 3d f8 14 98 bb
       -0.12508291 0.13885033 0.05969357 -0.0046411715
000050 31 d8 0a be 42 5f d3 3c 40 b2 3f bd c6 b0 41 3d
       -0.13559033 0.025802258 -0.04680085 0.047287725
000060 5f 32 ca 3d 3b d2 85 bc 2c 54 06 3e 92 71 8a bd
       0.09872889 -0.016335597 0.13118047 -0.06759943
000070 4b 8e a9 bd 09 65 0c be d1 a0 86 bd 78 e8 65 bd
       -0.08279093 -0.13710417 -0.06573642 -0.056129903
000080 42 42 be bd 85 85 66 3c 23 7e 14 be 6e 56 2c bd
       -0.092899814 0.0140699195 -0.14501242 -0.042074613
000090 27 19 9b 3d a0 69 99 bd 8a 6a 16 3d 75 a5 82 3d
       0.07573157 -0.074908495 0.036722697 0.06379215
0000a0 47 56 ec bc ba dd 1d 3d d4 61 a7 bd b7 e2 58 3c
       -0.028849734 0.038541533 -0.08172956 0.013237647
0000b0 d2 8e f8 3d 7d b3 1e be 22 13 7f bd 35 f0 e9 bd
       0.12136616 -0.15498157 -0.062274106 -0.11422769
0000c0 c1 5d a3 bd 57 0e e4 3d 6b bd 8a 3d 33 17 89 3d
       -0.079768665 0.111355476 0.0677441 0.06693878
0000d0 6f 27 cd 3d f3 92 85 bc b9 5f d2 3c 09 a6 78 3d
       0.10017287 -0.016305422 0.02568041 0.06070522
0000e0 a1 55 98 3d 11 72 86 3c e5 3a 37 3d e1 07 20 be
       0.074382074 0.016411813 0.0447339 -0.15628006
0000f0 f8 9c ce bb db 99 f9 bd 4a 6b 17 3e e7 ef ff 3d
       -0.006305333 -0.12187549 0.14787021 0.124969296
000100 1c 28 9e bd 86 50 5c 3d 05 cf da bd b8 e7 1d 3c
       -0.07722494 0.05378773 -0.10684017 0.009637766
000110 0d a0 5a bd 77 11 9f bd 6e 5e 65 bb 7e 8d 19 bd
       -0.053375293 -0.07767003 -0.0034998911 -0.037488453
000120 26 c5 e7 bd ff b0 a0 bc 31 c1 10 bd eb 0a e5 3d
       -0.113169 -0.019615648 -0.03534049 0.11183723
000130 af d3 c0 3d d8 51 00 be 37 ab 11 be c5 c5 aa 3b
       0.094153754 -0.12531221 -0.1422547 0.0052115642
000140 1b 0e 02 bd ee 18 17 3e 8a bd 1d be 26 e6 35 bd
       -0.031751733 0.14755604 -0.15404335 -0.04440894
000150 12 99 15 bb ad 28 13 3e 7c 18 45 bd ff b5 cf 3c
       -0.0022826833 0.14370985 -0.048119053 0.025355337
000160 46 6e a7 bd e0 f7 db bd 81 60 c6 3d 5b e6 d3 3b
       -0.0817533 -0.10740638 0.096863754 0.0064666695
000170 06 3d 77 3d 63 a9 ae 3d 17 2c 10 be 0d 01 8f 3d
       0.06036093 0.08528402 -0.14079319 0.06982622
000180 c6 fe 81 bd ab 23 c7 3d a5 6d 0c be 3a 9b ce bc
       -0.06347422 0.097236 -0.13713701 -0.025220502
000190 15 b0 f0 3d aa 18 42 3d d8 f2 19 3e a1 55 d1 bd
       0.11752335 0.047386803 0.15034044 -0.102214105
0001a0 4e ad e8 3c 7f 3a 32 3d d1 07 86 bc 9e eb 16 bd
       0.02840295 0.043512817 -0.016361149 -0.036845796
0001b0 21 71 b4 3d d1 22 b9 3d 37 31 ef bd 4e ba 12 3e
       0.0881064 0.09039844 -0.11679309 0.14328882
0001c0 b9 ac eb 3d 1d 17 e6 3d e1 92 9a 3d c9 99 e6 bd
       0.115075536 0.11234877 0.07547546 -0.11259801
0001d0 70 9f 1e bd 6a fe 40 3d 0a c2 86 bd d5 19 cb bc
       -0.03872627 0.04711763 -0.06579979 -0.024792591
0001e0 7b 7d 15 be 64 5d a4 bd 07 b8 8f bd 58 02 1c bc
       -0.14598648 -0.08025625 -0.07017522 -0.009522043
0001f0 59 e8 69 bd 86 6b 60 bd db a4 d4 bd 19 e5 fa 3b
       -0.05710635 -0.054790042 -0.10383006 0.007656705
000200 56 e8 06 3e d1 87 fe bd 28 3d 86 3d c1 cb e2 bd
       0.13174567 -0.12428249 0.065546334 -0.11074019
000210 02 93 66 3d 9b 0c c6 bd 0a 06 97 bd 5e 39 25 bd
       0.05629254 -0.09670373 -0.07374199 -0.040337913
000220 b4 7f 19 3e 21 5d 94 bd 06 a2 50 bd 5f 22 b7 3d
       0.14990121 -0.072443254 -0.050935768 0.08942103
000230 6d 3c 98 3d 53 b5 bf bd 0c e8 7e bd 1f 58 b8 3c
       0.074334 -0.09360757 -0.062233016 0.022502957
000240 26 3f 74 3d 54 df a1 bd 72 a5 33 3d 4e c4 04 3e
       0.059630536 -0.079039246 0.043858953 0.1296551
000250 8b 2f d2 bd 15 92 e5 3d 1e 6b 5d 3d 83 88 a8 3d
       -0.10262974 0.112095036 0.054057233 0.082291625
000260 6c dd 13 3e 9e 29 cb bd cb 23 e4 bc d6 48 03 be
       0.14439934 -0.09920047 -0.027849099 -0.12820753
000270 53 7f ba bd c1 89 9d 3d f1 ce d7 3d d8 1f 20 3e
       -0.091063164 0.0769229 0.10537518 0.15637147
000280 31 86 fb 3d f9 29 87 bd c2 39 53 bd c3 27 b1 3d
       0.12281454 -0.065998025 -0.051568754 0.08650162
000290 c4 3b 12 3e 8d 8a 14 3e a3 58 be 3d b1 30 84 bc
       0.14280611 0.14505978 0.0929425 -0.0161365
0002a0 36 18 7d bd 12 4f 70 bd 1e d4 fe 3d 76 51 3b 3d
       -0.061790667 -0.058669157 0.12442802 0.045731984
0002b0 57 b0 81 3d d0 8c 94 bd 5a 84 b0 bd 4d d3 02 be
       0.06332462 -0.0725342 -0.08618994 -0.12775917
0002c0 c5 1e a9 bd 38 c7 ba bb 0f 5f 20 be ad 55 f9 bd
       -0.08257822 -0.0057000183 -0.15661262 -0.121745445
0002d0 a7 33 ab bc 5a ca 78 bd 7f d4 ed 3d 4c 59 17 be
       -0.020898653 -0.060739852 0.11612796 -0.14780158
0002e0 a5 51 ff bd c2 f4 f8 3d a5 ad 10 3e 67 eb e0 3d
       -0.12466744 0.12156059 0.1412874 0.109823994
0002f0 5d a2 7c bd 9c 59 ba bd 28 fb 01 3c ca 0c 09 3e
       -0.06167828 -0.09099123 0.0079334155 0.13383785
000300 27 89 63 bd 46 dd 17 3d 1a 87 9f bd 0f d0 7a 3b
       -0.05555072 0.037076257 -0.077894405 0.0038270985
000310 c0 10 0c bd ff 57 a0 bc 86 e5 4d bd 00 b9 5e bd
       -0.03419566 -0.01957321 -0.05026772 -0.05437565
000320 d8 6d 1c be 72 c1 47 bd d2 ef 1c 3b 5f 9f a7 bc
       -0.15276277 -0.04876847 0.0023946655 -0.020461736
000330 88 57 64 bc a6 8f 63 bd af fa 52 bb ee 1e 2f bd
       -0.013936885 -0.055556916 -0.0032192876 -0.042754106
000340 ab 51 7a bb 73 80 e3 3d 15 e5 02 3e 62 9f d9 ba
       -0.003819565 0.11108484 0.127827 -0.0016603286
000350 a2 f8 1b 3d a7 82 dd 3d 7b fd c2 3d d4 0d 0d be
       0.03807891 0.108159356 0.09521004 -0.13774806
000360 89 8d a9 3d 43 2f ee 3d ef 95 97 bd ac 14 47 bb
       0.08278949 0.11630108 -0.074016444 -0.0030377312
000370 46 96 35 bd 92 26 2a 3d b2 c5 02 3e 3e 13 45 3d
       -0.044332765 0.04154069 0.12770727 0.048114054
000380 bc 1b 20 bd ad a7 90 bc 3a 82 f1 bb 08 a2 10 3e
       -0.03908895 -0.017658079 -0.0073702605 0.1412431
000390 ce 00 17 3e 1c 47 11 3e c7 63 c9 3d 27 bc 56 bd
       0.147464 0.14187282 0.09833484 -0.05242553
0003a0 98 3d b9 bd 2c 1d 16 bb f9 57 50 bc 71 08 ae 3c
       -0.09044951 -0.0022905571 -0.012716287 0.02124426
0003b0 b5 ef b1 3d b3 81 c0 3d 0e fe 1b be e2 14 1b 3d
       0.086882986 0.09399738 -0.15233633 0.037861712
0003c0 94 25 90 bd 2f d7 df bc 71 95 bd 3c 00 57 a5 bd
       -0.070384175 -0.027324287 0.023142548 -0.080732346
0003d0 7d ee b5 3d 69 77 91 3d b9 0d cb 3c 38 88 3c 3a
       0.08883379 0.07102854 0.024786817 0.0007191929
0003e0 c6 4e a6 3b 3b 35 8a bd 0d f0 b0 3d 22 03 0b 3e
       0.0050753085 -0.06748434 0.08639536 0.13575414
0003f0 08 23 09 3d b4 ce 0d be 1c 41 1f bd 67 3e 2e 3d
       0.033480674 -0.13848382 -0.038880453 0.04253998

fc_hand.bias f4 [768]
000000 bb da 44 bd 8b 55 0a be 52 e1 b4 3d 6b a1 24 bd
       -0.04806016 -0.13509195 0.08832039 -0.040193003
000010 d4 94 ad bb cd cf 8d 3c 53 f5 8c 3d 3a 4d a5 3d
       -0.0052972827 0.017311001 0.068827294 0.080713704
000020 80 b8 9c 3d 69 66 12 be 1d 46 8e bd e0 ad ca 3d
       0.07652378 -0.14296879 -0.06946967 0.09896445
000030 ae 1d 31 3d 17 86 00 3d 83 f9 09 3d 25 47 0c 3e
       0.043241195 0.031377878 0.03368522 0.13699014
000040 41 ab 70 3d 4a 3a 00 be a8 d2 70 3d f2 20 0c bd
       0.05875707 -0.12522236 0.058794647 -0.034211107
000050 ef ac a8 bd 28 c7 df bc cd 75 ac bd 9c f6 95 3d
       -0.082361095 -0.027316645 -0.08420906 0.07322428
000060 cd 5a 75 3d 6d f4 d0 bd a9 fe 64 3c 29 38 77 3d
       0.059901047 -0.102028705 0.013976731 0.060356293
000070 fb 6b 29 bc d0 7e ca 3d d2 dd 0d 3e c8 5d ed 3d
       -0.010340686 0.09887469 0.13854149 0.11590153
000080 87 70 27 3d de eb a2 3c 62 07 8d bd 21 41 bb 3d
       0.0408788 0.01988786 -0.06886174 0.09143282
000090 58 52 c7 3d ee 8f a1 3d 5b 73 8d bd e7 2c ad bc
       0.09732503 0.078887805 -0.06906768 -0.021139575
0000a0 86 f5 82 3d 2e 6a 63 3d d7 dc 79 3d 69 07 ff bd
       0.06394486 0.055521183 0.061001625 -0.12452585
0000b0 22 fa 0a 3c 26 07 0f 3e 78 c5 fd 3d 5b db 0b be
       0.008482488 0.1396757 0.1239118 -0.13657896
0000c0 cb 95 a4 3d b9 1f 17 be 29 11 f9 3d 28 ef 1c be
       0.08036383 -0.14758195 0.12161476 -0.15325606
0000d0 71 a3 73 3d a0 a0 b7 3d 1e 3c 0d be f8 b0 19 3e
       0.05948204 0.08966184 -0.13792464 0.15008914
0000e0 a1 32 37 3d 5b e3 27 bd 87 eb 1d bd 5a 92 eb bd
       0.044726018 -0.040988307 -0.038554695 -0.11502524
0000f0 06 d9 50 3d cb a3 15 3c da f3 07 be 8d 2e 22 3e
       0.05098822 0.00913329 -0.13276616 0.1583807
000100 51 b6 95 3d 9d 96 23 3c 4a 8b 8d bd 9f ab e2 3d
       0.07310165 0.0099846395 -0.06911333 0.110678904
000110 11 14 f2 3d cb 8c c2 3d a4 71 22 be 5b bb 10 be
       0.118202336 0.094995104 -0.15863663 -0.1413397
000120 7b 1e ca bd 7c 7d 1d bd c0 6c 8f 3d b3 a0 17 be
       -0.09869095 -0.03844975 0.07003164 -0.14807396
000130 11 71 04 3d b7 14 c9 3d 45 e9 bf bd 91 d8 26 bd
       0.03233439 0.09818404 -0.093706645 -0.040733878
000140 97 7a 0c 3e cd 5d ac bd f5 8d 0c 3d 69 27 cd 3d
       0.1371864 -0.084163286 0.03431507 0.100172825
000150 c5 50 14 be 4c 97 f5 3c 83 ba cc 3d a9 f3 cb bd
       -0.14483936 0.02997937 0.09996512 -0.09958584
000160 2a 5f 35 bd f1 d8 17 3e 88 93 b7 bd 8e 67 6c bd
       -0.04428021 0.1482885 -0.08963686 -0.057715945
000170 e9 84 aa bd 46 38 9a 3c cb 14 bd bd a3 df e6 3d
       -0.08326132 0.018825661 -0.092324816 0.11273124
000180 71 d3 15 3e 67 6c cb bd dc eb f7 3d 28 e4 dc bd
       0.1463144 -0.099327855 0.121055335 -0.10785705
000190 1b b7 5b 3d f2 c5 ac 3d c4 60 07 be 67 02 63 3d
       0.05364142 0.084361926 -0.13220507 0.055422213
0001a0 43 b6 ca bd 3d fb 75 3d ee 8d 73 3d 6c 85 e1 bd
       -0.09898045 0.060054053 0.059461527 -0.11011776
0001b0 dc 0f 23 3e af a5 36 bd a0 2a f5 3c 28 99 53 bd
       0.15924019 -0.044591602 0.029927552 -0.051659733
0001c0 aa a2 47 3d 83 51 fa 3c 18 46 08 be 2b 07 07 be
       0.048739113 0.030556446 -0.13307989 -0.13186328
0001d0 45 a5 72 3b 64 7d f4 bd ad f3 06 3e f7 80 06 be
       0.0037024778 -0.11937979 0.13178892 -0.13135134
0001e0 3c 72 16 3e 84 0d f6 bd 58 ce 17 3e b5 29 0d be
       0.14692014 -0.12014297 0.14824808 -0.13785441
0001f0 1d 87 0a 3d 90 a2 a8 bc 28 58 c6 bd f2 a4 a9 bd
       0.03382026 -0.020585328 -0.09684783 -0.08283414
000200 32 31 63 3d 32 37 13 3e 7d 23 a3 3d 86 88 18 bc
       0.05546684 0.14376524 0.07965753 -0.0093098935
000210 0c 91 92 bd f5 72 0b 3c 13 be 12 be 3d a6 01 3e
       -0.07156572 0.008511295 -0.1433032 0.12661071
000220 cc cc bc 3d 2c b5 9d 3c d7 d1 b5 3c 9b 38 0d 3e
       0.092187494 0.019251429 0.022194786 0.13791125
000230 9f bd b4 3d 3a 14 26 bd 04 41 c0 3d 54 5a 7d bd
       0.0882523 -0.040546633 0.09387401 -0.06185372
000240 34 3f d6 3d 64 1a 20 be 30 f0 a8 3d ea 51 ad bc
       0.10461274 -0.15635067 0.08248937 -0.021157224
000250 1c 1a 0c 3d b8 6a 79 3d 54 d0 85 3d 17 3b df 3d
       0.034204587 0.06089279 0.06533876 0.10899942
000260 f6 53 82 bc b8 e3 8f bc 61 74 0c be 0d ec 5c bb
       -0.015909176 -0.01756464 -0.1371627 -0.0033710033
000270 aa a9 c0 bd cd e1 f0 3d e4 b1 b9 bd 68 0d ee 3c
       -0.09407361 0.11761818 -0.09067133 0.029059127
000280 a2 d9 09 be 3b b9 e0 3d 7d 7c 02 3e 0a 27 37 bb
       -0.13461927 0.1097283 0.12742801 -0.0027946853
000290 6c 5a ad 3d 2c 1b f0 bd 63 fe 13 bd 36 d0 61 3d
       0.08464512 -0.117239326 -0.036131274 0.055130206
0002a0 54 36 eb 3d e2 a1 94 bd f4 92 75 bd 07 03 83 bd
       0.11484972 -0.07257439 -0.0599546 -0.06397062
0002b0 ce c4 bf bd 03 47 d7 bd e2 fc 9a bd d0 ae 7b 3d
       -0.093637094 -0.10511591 -0.07567765 0.06144601
0002c0 63 75 d2 bd c2 c2 e4 bd d9 3f 78 bd 24 5f de 3d
       -0.10276296 -0.111699596 -0.060607765 0.108579904
0002d0 e8 2d e6 3d 37 72 83 3b bd d0 07 3e b2 44 07 3e
       0.11239225 0.004011418 0.13263221 0.13209799
0002e0 92 0b 07 be e7 af dd bd da 71 6a bd 37 38 65 3d
       -0.13188007 -0.10824566 -0.057237484 0.055961814
0002f0 fd f5 45 3a 88 bd 16 3e 21 53 02 be a7 5b e8 bd
       0.0007551609 0.14720738 -0.12727024 -0.11345606
000300 55 2c 2e bd fb 1b 82 3d 72 96 3e 3d 3a cc fc bd
       -0.042522747 0.06352993 0.046530195 -0.123436406
000310 9e bd c2 bd 2a 44 86 bd 1c 6e f3 bd 98 f2 24 bd
       -0.09508823 -0.0655597 -0.11886236 -0.040270418
000320 82 b5 2b b9 76 90 38 bc d0 1b d4 3d 70 71 05 bd
       -0.00016375448 -0.011264911 0.10356867 -0.032578886
000330 df 06 14 be 0a 2b 3e bd b4 42 2a 3c 73 73 dd bc
       -0.14455746 -0.046427764 0.01039188 -0.02703259
000340 8c f8 a0 3d db ef 04 be a0 da 17 be 30 73 fc bd
       0.078599066 -0.12982123 -0.14829493 -0.12326658
000350 aa 89 09 3e 17 8d f6 3d 2a 3b 51 3c f3 56 82 3d
       0.13431421 0.120386295 0.0127704535 0.063642405
000360 f2 47 a1 3d cb 8b 9e bd 8d 2f e4 3c c5 5b 0c 3e
       0.078750506 -0.07741507 0.027854705 0.13706882
000370 3c a2 de 3d cd e0 1f be 18 36 1e 3e 8a 2f ca ba
       0.108707875 -0.15613098 0.15450323 -0.0015425545
000380 73 91 08 be 9b 25 c9 bd a8 b1 10 3c e7 02 b3 bd
       -0.13336734 -0.09821626 0.008831419 -0.08740788
000390 58 3d ac 3d 3d 8d 9d bc c7 aa c0 bd 4a 52 fa 3c
       0.08410138 -0.019232387 -0.09407573 0.030556817
0003a0 ea ae 40 bc a3 43 54 3d 9e 66 84 bd 26 39 87 3c
       -0.011760453 0.051822316 -0.06464885 0.016506743
0003b0 91 f6 b1 bd c9 b9 0f be b5 e0 5a 3d c8 b2 8a 3d
       -0.08689607 -0.14035715 0.053436954 0.06772381
0003c0 8d 3e 7b bd 18 1e b0 bd bc af 89 3d d5 ae 22 be
       -0.06133895 -0.0859949 0.06722972 -0.15887006
0003d0 d6 f1 4d bd 4c 04 00 3e 68 b0 e5 bd d4 23 02 be
       -0.05027946 0.12501639 -0.112152874 -0.1270898
0003e0 08 31 6d 3d fc e6 f9 3d 01 2e d0 3d b3 ee ab 3d
       0.057908088 0.1220226 0.101650245 0.08395138
0003f0 3c 7a f9 3d 0a db 18 3d 35 6d c2 3d 40 cf af 3d
       0.121815175 0.037318267 0.09493486 0.08584452

fc_audio.weight f4 [768, 36]
000000 9c 2a d7 3d aa 28 08 be 81 b8 a2 bd 48 5b f3 3c
       0.10506174 -0.13296762 -0.079453476 0.029706612
000010 50 3c d5 3d 21 a2 20 bd 68 cb 83 bd b7 3b 1d be
       0.10411894 -0.03921712 -0.06435281 -0.1535481
000020 ae 8a e1 3d de 59 81 3c 17 2e 0a be b8 60 9c bd
       0.11012779 0.015789922 -0.13494144 -0.07635635
000030 90 74 12 3e e7 6e 23 3d 96 11 47 bc a0 4b e9 3d
       0.14302278 0.039900687 -0.012150189 0.113913774
000040 53 b1 17 be ff 47 49 3d 79 26 93 3c 88 97 94 bd
       -0.14813738 0.049140926 0.017962681 -0.07255465
000050 2e 02 fb bd 90 c7 b2 3d 0a f4 ec 3d d1 8a 8c 3d
       -0.12256275 0.0872947 0.11569984 0.06862415
000060 57 38 e2 bd e4 9e 6d bd 67 bc a8 bd a7 80 02 3c
       -0.11045902 -0.058012858 -0.0823906 0.007965243
000070 af 85 5c bc 31 36 23 be b0 43 ac 3d 53 ce 00 be
       -0.013459607 -0.15938641 0.08411348 -0.12578706
000080 1e 85 8f 3d 93 ed 0f 3e 46 02 b4 3d 4d 7e 0e 3c
       0.07007812 0.14055471 0.08789496 0.008697105
000090 31 01 24 bd 89 0a b1 bd 38 11 e3 bd 80 f2 33 3d
       -0.0400402 -0.086445875 -0.110872686 0.043932438
0000a0 39 86 2b be 97 5f f5 bd fb 7e 42 bd b0 29 cb 3d
       -0.1675042 -0.11981123 -0.04748438 0.09920061
0000b0 2e a1 02 3e 4e 5c 54 3c 4d 62 95 3c 62 d4 17 be
       0.12756798 0.01296146 0.01823535 -0.14827111
0000c0 d1 fd 9f bc 8a 66 17 bc 75 32 89 3d 02 d2 b0 bd
       -0.019530209 -0.009240756 0.06699077 -0.08633806
0000d0 f6 c7 0a be 0d 55 e2 bc aa 22 06 bc c2 a1 63 3d
       -0.13552842 -0.027628446 -0.0081869755 0.055574186
0000e0 e4 9c e4 3d 61 69 27 3d a9 7d 95 bc 56 02 d8 3d
       0.11162737 0.04087198 -0.018248396 0.105473205
0000f0 33 0d 30 3d 9b ad c0 bc bc 51 ca bc 8e 1e f1 bd
       0.042981338 -0.023520282 -0.024697177 -0.11773406
000100 a7 4a 80 3c a4 4e ef bc 9a 15 d7 3d 0b a3 b0 bc
       0.015660597 -0.029212303 0.10502167 -0.02156212
000110 ce 1b e7 bd e1 2a 47 bd 36 b6 9d bd d5 0b 22 bd
       -0.112846 -0.048624877 -0.077007696 -0.039562065
000120 5f fc 2a 3d 62 11 7f 3d 97 2f 27 3d 0d 64 df 3d
       0.041744586 0.062272437 0.04081687 0.10907755
000130 8c 0d 25 3d 75 b8 00 ba 9c 37 d5 bd 8f 34 7a bd
       0.040296122 -0.0004910299 -0.10410997 -0.06108528
000140 ff 6f e3 3c 2b cb c3 bd 16 80 a4 3c d9 1c 18 be
       0.027763365 -0.095602356 0.020080607 -0.14854755
000150 db 53 05 3e da 86 fc 3d df f9 e7 bc 23 c6 23 be
       0.1302027 0.123304084 -0.02831739 -0.15993552
000160 e5 fc 07 3d ad 88 64 3d 98 0b 47 3d f3 45 8a bd
       0.033200163 0.055794407 0.04859504 -0.06751623
000170 9d 27 b3 3d aa e9 d3 3d f9 f0 02 3e c2 3a 28 3d
       0.0874779 0.10347302 0.12787236 0.04107166
000180 f4 0a 0c be 5e 16 d2 bd 35 47 25 3d 92 02 eb bd
       -0.13676053 -0.102581725 0.04035111 -0.114750996
000190 a2 4d 46 3c a2 65 55 bc 1e 89 b9 bc bd 24 57 bd
       0.01210347 -0.013024719 -0.02264839 -0.05252527
0001a0 9f 4c 0b be 98 43 a0 bd 2b 00 16 be 70 7d d6 bc
       -0.13603447 -0.078253925 -0.14648502 -0.02618286
0001b0 48 7a fc bd f2 a3 2a be 88 bb 78 bc 53 04 c0 3d
       -0.12328011 -0.16664103 -0.01518143 0.09375825
0001c0 34 02 00 be b2 d6 f9 bc a7 2b f7 3d 3a 53 03 be
       -0.1250084 -0.030497883 0.12068873 -0.12824717
0001d0 2d d6 0a 3c 45 15 cb 3c 77 81 34 3c 89 66 eb 3d
       0.008473915 0.024790416 0.011017195 0.114941664
0001e0 45 0c 19 be 02 78 18 3e 9d 33 f6 3d 5f c8 cb bd
       -0.14946087 0.1488953 0.12021563 -0.09950327
0001f0 cb 9b 31 bd 82 86 7c 3d 25 1d 24 be e1 f9 a4 bd
       -0.043361466 0.061651714 -0.16026743 -0.08055473
000200 d5 4f ba 3d 1b ae b6 3d d9 a5 61 bd 98 44 ba bd
       0.09097258 0.08919927 -0.055089805 -0.090951145
000210 78 94 35 bd 9b e7 8d 3d a5 3c 77 3d 02 f2 81 bd
       -0.044331044 0.06928941 0.06036057 -0.063449875
000220 d5 0b a2 3d f0 f9 1c 3c 87 7a 3a bd 17 7a 21 bc
       0.07912413 0.009581074 -0.045527007 -0.009855769
000230 4c b7 19 3e 8e 6b 03 be 37 52 27 be 21 5e ec 3d
       0.15011328 -0.12833998 -0.16339956 0.11541391
000240 a9 4c 2f be e2 e8 88 3d 54 c4 8b bc 9f 5e 57 bd
       -0.17119087 0.06685044 -0.01706139 -0.052580472
000250 54 02 88 bd 20 f8 ad 3d fc af a4 3d 1d 81 ce bd
       -0.06641069 0.08494592 0.08041379 -0.1008322
000260 45 5b e9 3b 76 64 24 bd 28 80 1b be a9 24 3b bd
       0.007121476 -0.04013487 -0.15185606 -0.04568926
000270 dd 87 cb 3d 3b f8 14 3e 01 a8 82 3d af 6a 1a 3e
       0.09938023 0.14547817 0.063797005 0.15079759
000280 41 93 fd 3d cf 7a d2 bd 7b 3a 0d be 47 44 78 bb
       0.12381602 -0.1027733 -0.1379184 -0.0037882493
000290 74 5a 36 bd c1 f1 11 be 30 d7 23 bd db 40 c6 bb
       -0.044519857 -0.14252378 -0.04000014 -0.006050212
0002a0 ed 2c 35 3d 38 7d 91 3c 16 25 33 bb 84 a2 f8 bc
       0.044232298 0.017759904 -0.0027335337 -0.030350931
0002b0 a0 64 8e 3d e1 bc 5f bd b2 09 23 3e f0 c0 e7 3d
       0.069527864 -0.05462349 0.15921667 0.11316097
0002c0 ff 35 8c 3b 76 d4 10 be 9a 1d e5 bd 17 ca 0b be
       0.004278898 -0.14143547 -0.11187287 -0.1365131
0002d0 ab 7f 15 3d d7 df 82 3d 21 d7 6b bd 98 1b 19 3e
       0.036498707 0.0639035 -0.05757821 0.14951932
0002e0 cb 32 0a be 33 33 9d 3c 7a a2 d2 bc 1e 76 9c 3d
       -0.13495938 0.019189453 -0.02571224 0.076397166
0002f0 dc cd 23 be 5a 5c a5 bd e6 44 9d 3d 82 ca b3 3d
       -0.15996498 -0.08074255 0.07679157 0.0877886
000300 49 21 86 3c 7f 7b f7 bb 8b 07 63 3c e4 bb 14 3e
       0.016373293 -0.0075525637 0.013856779 0.145248
000310 37 88 e9 3d de b9 d2 bb 73 07 df 3d 5f c1 81 3d
       0.11402934 -0.0064308485 0.10890093 0.06335711
000320 14 02 23 bc 4c 53 0e be 0f 6a 9f 3d 53 01 89 3d
       -0.009949226 -0.13898963 0.07783901 0.06689706
000330 e3 e8 b1 3d a5 ac f5 3c e6 1f 29 3e ea 1d 14 be
       0.08686998 0.02998955 0.16516075 -0.14464536
000340 cc 0e 3c bb ec de 2b 3e c6 34 4c 3d 75 9f 28 3e
       -0.0028695343 0.16784257 0.049855016 0.16467078
000350 07 7f e7 3d 8b 72 dc 3d 39 8f 1f be 61 86 b8 bc
       0.113035254 0.10764035 -0.15581979 -0.022525014
000360 15 f9 bb bc 0a a6 10 be 8d 18 89 bd 83 1c 7b 3d
       -0.02294592 -0.14125839 -0.06694136 0.061306488
000370 9c 70 e6 3d 17 d0 9f 3d 69 85 30 3e 09 83 eb 3c
       0.11251947 0.07803362 0.17238392 0.028749006
000380 e6 b5 76 3c 75 30 23 3e e2 50 09 3e 47 ca 3d bd
       0.015058016 0.15936454 0.1340976 -0.046335485
000390 8d 80 cd bd d6 a1 22 be 4c b6 05 be 67 d2 9e 3d
       -0.10034285 -0.15882048 -0.13057822 0.07754975
0003a0 91 81 0e bc ee 41 a9 bc 06 e0 20 bd 83 e0 15 be
       -0.008697883 -0.02066132 -0.039276145 -0.14636426
0003b0 cc 85 c0 3a 7e 03 14 3c 4f ad 00 3e 1a 5c 92 3d
       0.0014688312 0.009034036 0.12566112 0.07146473
0003c0 d4 f2 59 3d 18 68 ab 3d 25 6f c8 3d 20 db 50 3d
       0.053210095 0.08369464 0.09786824 0.050990224
0003d0 62 9d 12 3e b6 5c f8 bd c2 46 0f be fe 48 d9 bd
       0.1431785 -0.12127058 -0.13991836 -0.10609625
0003e0 25 bc cb bd 4c 3b 7c bd 25 c3 10 3d b5 ae 8c bc
       -0.09947995 -0.061579987 0.035342354 -0.01717315
0003f0 9b d6 71 bd ed 30 18 3e d1 50 ac 3d 65 d3 f9 bd
       -0.059042554 0.14862414 0.08413852 -0.121985234

fc_audio.bias f4 [768]
000000 e1 a8 51 bd 61 9c 0a 3e 5f cd e3 bc d4 22 23 be
       -0.051186446 0.13536216 -0.02780789 -0.15931255
000010 c8 3c 20 3e 42 9e 18 3d ca d6 ff bc be 59 88 bd
       0.15648186 0.0372603 -0.03123035 -0.06657742
000020 1d e9 2d be 6f 72 10 3e 63 dc d8 bd ba a9 a0 bc
       -0.16983457 0.14106153 -0.105889104 -0.019612182
000030 13 57 c5 3c 7a fe 23 bd 5e 04 6e 3d b1 88 61 bd
       0.024089372 -0.04003761 0.058109634 -0.055062
000040 79 df a6 3b 95 b5 8b 3d 92 e3 20 3d 2a c9 e5 3a
       0.005092558 0.068217434 0.039279528 0.0017531265
000050 23 51 bd 3d ee e7 ce bb 7c 6a ea bd 37 9e 80 bc
       0.09243991 -0.0063142693 -0.114460915 -0.015700443
000060 16 53 03 be 21 4a 2b bc 90 00 71 3d 3d de 97 3d
       -0.12824664 -0.010454685 0.058838427 0.074154355
000070 84 66 07 3e 65 e0 09 be 10 da 14 be 6a 08 fd bd
       0.132227 -0.13464506 -0.14536309 -0.123551205
000080 67 60 7d bc a1 e4 cd bd d5 ff cb 3d 2a 76 94 3d
       -0.015464879 -0.10053373 0.099609055 0.072491005
000090 ee 7c 17 be 4e e2 bc bd 47 c1 d0 3d 25 7d fa 3c
       -0.1479375 -0.09222852 0.10193115 0.030577252
0000a0 ae b1 66 3c 8a c4 1b 3e 9c 31 8f bd 8f ee 95 3c
       0.014080448 0.15211692 -0.06991884 0.01830223
0000b0 68 42 56 bc 4e d8 87 bd be 42 43 3d a4 13 29 be
       -0.013077356 -0.06633054 0.047671072 -0.16511399
0000c0 13 90 14 3e c8 1c 9b 3d 97 64 90 3c e1 8d 43 3d
       0.14508085 0.07573849 0.01762609 0.04774273
0000d0 d9 b3 bf 3c bd b1 9d bc 34 b0 9f 3d 8f b4 97 3c
       0.023401188 -0.019249791 0.0779728 0.018518714
0000e0 3e c2 17 be db b7 c7 bd 8e 15 92 3d 4d f0 11 3d
       -0.14820191 -0.097518645 0.071330175 0.03562956
0000f0 b9 4b eb bc 4e 6b 85 3d 23 3b 2c 3d 4b 9c 10 be
       -0.02872263 0.06514607 0.042048585 -0.14122121
000100 34 00 c9 bb 51 88 99 bd aa 67 13 be dd f2 95 bd
       -0.0061340574 -0.074967034 -0.14395013 -0.07321713
000110 ce ab 2b 3d a3 28 26 bc 53 8b 9e bd 87 62 7f 3c
       0.041911893 -0.0101415245 -0.07741418 0.015587456
000120 65 d7 da bd c7 75 07 3c a1 8a bd 3d df 55 da bd
       -0.106856145 0.008267826 0.09254957 -0.1066091
000130 71 fe 1c be fc 88 08 bd 98 cc f5 bd e2 2a 0f 3e
       -0.15331437 -0.033333763 -0.12001914 0.13981202
000140 58 b6 2f be 36 df 28 3e 72 8a 1d be 1d a9 92 3d
       -0.17159402 0.16491398 -0.15384844 0.07161162
000150 ec 51 b1 bd 8f 81 e8 3d 7a 76 b4 bc bc a1 20 be
       -0.086582035 0.11352836 -0.02202915 -0.15686697
000160 82 58 99 3d 8c 06 1b 3e 56 d2 63 bc 04 fc eb bd
       0.07487585 0.15139216 -0.013905128 -0.115226775
000170 fb 47 d4 bc 96 d0 fd bd eb 83 30 3d 1d 83 06 3e
       -0.02591323 -0.123933 0.043094557 0.13135953
000180 7c ee d6 bd 8a ca 0b 3d a5 48 61 bc dd af 22 3d
       -0.10494706 0.034128703 -0.01375023 0.039718498
000190 8d d8 0d 3d 99 4c a5 bd a8 ec 98 bb 0d c1 f6 bd
       0.034630347 -0.080712505 -0.0046668835 -0.1204854
0001a0 a5 0d a8 bd 4d 3a b8 bd d3 1f 1d 3e 4c d3 1e 3e
       -0.082057275 -0.08995495 0.15344171 0.15510291
0001b0 33 88 9a bd 59 23 07 be a0 c4 4a bd 21 e6 21 3c
       -0.07545509 -0.13197078 -0.049503922 0.009881527
0001c0 38 da 09 be c3 e2 87 bd 21 b0 3c bd 0f b2 d9 bd
       -0.1346215 -0.06635048 -0.046066407 -0.10629665
0001d0 a7 dc 02 bd 4d b3 3f 3d f0 8e ca bc a5 ab 10 be
       -0.03194871 0.046801854 -0.024726361 -0.14127977
0001e0 c5 18 b8 3d 2c d6 08 bc aa c9 a2 bc 7a f3 f7 bd
       0.089890994 -0.008351844 -0.019871552 -0.12106986
0001f0 7b 0f 08 be da 2a 0f be 80 95 bd bc 2a 01 18 3e
       -0.13287155 -0.1398119 -0.023142576 0.14844194
000200 cb a7 a4 3b 72 14 c6 bc 4d bb 12 be 86 8d 30 3d
       0.0050248853 -0.024179671 -0.14329262 0.043103717
000210 4c 39 b9 3d a4 5e fe bd 0e 3d 92 bd c5 ca 67 bd
       0.09044132 -0.12420395 -0.071405515 -0.05658986
000220 d2 bf 3a bd fc 19 8a bd b8 d5 17 be 9b 9d e3 bd
       -0.04559309 -0.067432374 -0.14827621 -0.11114045
000230 c7 04 09 be 62 59 9e 3d 9b 95 26 bc d4 cd 99 3d
       -0.13380729 0.07731892 -0.010167505 0.07509962
000240 b7 bc 12 be 2b 4a 68 3d f9 42 0b be 73 b1 90 3d
       -0.14329801 0.056711357 -0.13599767 0.07065096
000250 ae 03 9c 3d 80 0c ce 3d 50 cd d9 3c f2 31 d4 3c
       0.07617889 0.10060978 0.026587158 0.025902722
000260 52 42 ff bd 35 e6 23 3e 35 8f 3e bd e2 d3 86 3d
       -0.124638215 0.16005786 -0.04652329 0.06583382
000270 3a b4 04 3d 69 37 d2 bd eb 45 a1 3d aa 4f 11 be
       0.03239844 -0.10264475 0.07874664 -0.14190546
000280 56 38 d8 bd 90 8e 24 be d3 0c de 3b 6b 37 01 be
       -0.1055762 -0.16070008 0.006776431 -0.12618797
000290 e1 f7 91 bd 3e 77 08 bd 28 3b 93 3d 78 e4 18 3e
       -0.07127357 -0.033316843 0.071890175 0.14930904
0002a0 65 53 8b bd 64 33 37 bb 6f 44 81 bb 3b d6 0f 3e
       -0.068030156 -0.0027954215 -0.0039449255 0.14046566
0002b0 b7 08 17 3e 73 5f 22 3e 30 ae 18 be 60 b3 ee bd
       0.14749418 0.15856723 -0.14910197 -0.11655307
0002c0 00 10 86 3d fd e0 20 3e a3 14 53 3d 89 c9 e7 3d
       0.065460205 0.15710826 0.051533353 0.11317737
0002d0 6e c6 4d 3d 00 03 82 bd b3 77 62 bc 03 76 1d 3e
       0.050238065 -0.063482285 -0.013822484 0.15377049
0002e0 b8 9d 85 bd d6 4b 50 3d 72 b5 0d be 50 9e 16 3e
       -0.06524223 0.050853573 -0.13838747 0.14708829
0002f0 f7 e1 85 3d 7e 4a 1d 3d a8 79 07 3e bc 38 01 3e
       0.0653724 0.03840112 0.13230002 0.12619299
000300 38 6d 24 3e 8d fe bf bc fb 7c fc bd 91 fb 1c be
       0.16057289 -0.023436809 -0.12328526 -0.1533034
000310 cc d7 2b 3e c5 d1 ca bd 31 44 46 3c cd 6a 0f be
       0.16781539 -0.099032916 0.012101219 -0.14005585
000320 90 24 e4 3d 77 a7 d7 bd 0e ae 19 bd 76 ad 94 3d
       0.11139786 -0.10529988 -0.037519507 0.072596475
000330 7d f9 85 bd 29 1a dc bc 72 58 12 be bd 58 e6 3d
       -0.06541727 -0.026867943 -0.14291552 0.11247394
000340 5a de 19 3e 19 a8 d7 bb ee 1f b4 bc 02 a8 16 3e
       0.15026227 -0.006581318 -0.021987882 0.14712527
000350 d2 ec ad 3d a7 40 51 bc 36 80 5a 3d db d3 d5 bd
       0.084924355 -0.012771762 0.053344928 -0.10440799
000360 36 33 cb 3d 5e 09 13 3e c3 ed 05 3d 80 d5 1f be
       0.09921877 0.14359042 0.03269745 -0.15608788
000370 40 3c a1 3d 43 6e 87 3d d0 bd d1 bd 4b 15 df 3c
       0.0787282 0.06612828 -0.10241282 0.027231833
000380 6a 79 87 3c 68 90 24 3e 95 36 ed 3d f3 f7 f8 3c
       0.016537387 0.16070712 0.11582676 0.030391669
000390 24 42 00 3e 54 d9 d0 3d 6d eb c4 bc db 61 20 be
       0.1252523 0.10197702 -0.024038041 -0.15662329
0003a0 6b 53 c1 3d db 51 2a be 75 6e c4 bd 26 c4 c0 bd
       0.09439739 -0.16632788 -0.095913805 -0.09412412
0003b0 ca cb 36 3b e8 b0 d4 bd 38 fa a9 bd 85 a5 42 bd
       0.0027892464 -0.10385305 -0.082996786 -0.047521133
0003c0 28 2e b9 bd 8c 87 d3 bd c9 e5 05 be d4 28 ea 3d
       -0.09042007 -0.10328588 -0.13075937 0.114335686
0003d0 60 5f 93 bd 40 d4 62 bd 4e 43 98 3d fa 27 0f be
       -0.07195926 -0.0553782 0.07434712 -0.13980094
0003e0 68 40 d5 bc 55 7e 49 bd 5a 94 7c bb 77 c0 24 bd
       -0.026031688 -0.049192745 -0.0038540573 -0.04022261
0003f0 db 0a 23 3d 3d 81 5a 3c ff 58 04 3e d7 a8 d8 bc
       0.039805274 0.013336477 0.12924574 -0.026447697

classifier.weight f4 [10, 1536]
000000 60 38 e2 bc b1 b8 8e bb 93 c3 a8 3c 11 fe 93 3c
       -0.027614772 -0.004355513 0.02060107 0.018065484
000010 20 64 e7 bc 54 37 04 ba 61 30 d1 3c 25 c1 b7 3c
       -0.028245986 -0.0005043645 0.025535764 0.022430966
000020 26 79 8f 3b 22 25 32 3c 09 8c 84 bc 84 db 3c 3b
       0.0043784557 0.010873111 -0.016180055 0.0028817365
000030 68 3a c7 bc 62 8f 79 bb de 49 28 3c 8e 50 49 bc
       -0.024319842 -0.0038079848 0.010271518 -0.012287272
000040 d4 61 19 bc 3c b3 ae 3c 54 3f 49 3c a3 e9 68 3c
       -0.009361703 0.0213257 0.012283165 0.01421586
000050 12 02 fb bc e3 a8 c9 3c ec db 14 bc dc 27 e2 3c
       -0.030640636 0.024616664 -0.009085637 0.027606897
000060 6b 90 de 3b ae df 88 3c 83 f4 b9 bc fe eb 68 3b
       0.0067921183 0.016708221 -0.0226996 0.0035541053
000070 34 a0 84 ba a5 36 be 3c 16 60 26 3c fe b0 ff ba
       -0.0010118545 0.023219416 0.010154745 -0.0019507704
000080 7b 41 e3 bc e4 6c af bc e2 10 0e ba 6e 41 48 3b
       -0.027741184 -0.021414228 -0.0005419386 0.0030556577
000090 56 88 81 bc c9 82 24 bc c4 b3 82 bc f4 f2 4b 3b
       -0.01581208 -0.010040947 -0.01595486 0.0031120153
0000a0 78 6d 3f bc 3e f6 fb 3b 36 ee 76 bc 98 9c ae 3c
       -0.011683814 0.0076892665 -0.015071442 0.021314904
0000b0 f9 2d d0 3c a4 5e 0a 3c 3f 5d be ba ba cd ec 3c
       0.025412546 0.008445416 -0.0014523639 0.028906692
0000c0 e3 b9 32 3c a4 72 d6 bc e0 33 da 3c 39 5b 50 3c
       0.010908577 -0.026177712 0.026636064 0.012717062
0000d0 6f 2a 8b 3c b1 66 df bb 9a e7 22 3c 7d 75 4f 3b
       0.016988007 -0.0068176617 0.009942913 0.0031655722
0000e0 6d 19 67 3c e0 66 3e 3c 32 f1 8a 3c 61 ea a5 3a
       0.014105183 0.011621207 0.016960714 0.0012658351
0000f0 c3 52 65 3b ed 6c 0d bc cd b1 07 bc 6d 47 87 3c
       0.0034991957 -0.008631927 -0.008282137 0.01651355
000100 e4 e0 80 bc 77 3a 76 3c c9 06 80 3c 72 c0 ea bc
       -0.015732236 0.015028588 0.015628235 -0.028656218
000110 4b 51 68 3c e6 b3 56 3c bc 17 3f bc 0c 54 c2 3b
       0.014179538 0.013104415 -0.011663374 0.0059304293
000120 6f 0c 81 3b 0b 5b 18 bc f4 2b 0f bc 2b 5f 19 bc
       0.00393825 -0.00929905 -0.008738507 -0.009361069
000130 57 91 bd 3c 2e 3b f7 bc 31 d4 3b bb 41 60 91 bc
       0.023140593 -0.030179586 -0.0028660411 -0.017746093
000140 c9 54 f9 bc 5d 14 99 bc 17 1e ef bb c2 d6 71 3c
       -0.030435937 -0.018686468 -0.007297288 0.014760675
000150 52 cf 75 3b 06 86 be bb 15 4d 95 3c d5 7b 1a bc
       0.0037507606 -0.0058143167 0.018225232 -0.009428938
000160 d7 3d 90 3c 73 37 13 3a cc 8c 00 3c 9c ba 6e 3b
       0.017607613 0.00056158676 0.007846069 0.0036427146
000170 de aa a1 bc 13 6d 59 bc 91 c0 f0 3c cc 00 47 3c
       -0.019734796 -0.013270634 0.029388698 0.012146186
000180 0c b4 93 3c 76 fd 8e bc 01 4d 88 bc c4 30 90 bc
       0.018030189 -0.017454844 -0.01663828 -0.017601378
000190 65 0b c2 bc 44 ef a8 bc ff a2 9e 3c 20 97 cb 3b
       -0.023687074 -0.020621903 0.019364832 0.006213084
0001a0 85 a7 3b bc 4e e6 6f bb f9 39 ab 3c db 64 47 b9
       -0.011453514 -0.0036605778 0.020901667 -0.0001901569
0001b0 40 2d 89 3c 9f ad b3 3c 82 f6 df 3c 2f 39 3d bc
       0.01674521 0.021933375 0.027339224 -0.011549278
0001c0 8f 5c 3c 3b b1 b9 ef 3c 34 e7 67 3c 93 97 21 bc
       0.0028741693 0.02926335 0.014154244 -0.009862798
0001d0 38 f8 8f 3c 80 18 89 3c e9 d0 08 bc 6d b7 61 3c
       0.017574415 0.016735315 -0.008350589 0.013776642
0001e0 00 c7 ad bb ef fa 16 3c 4b 55 7d bc 0a 57 95 bc
       -0.0053032637 0.009215101 -0.01546223 -0.01822998
0001f0 b4 85 81 bb d7 83 5b 3c 16 40 fd 3a f4 f0 55 3b
       -0.003952706 0.013398132 0.0019321467 0.003264484
000200 99 89 8d bb ce 6f c8 3c 55 d2 ce bc 04 f4 c9 bb
       -0.0043193814 0.024467375 -0.025246779 -0.006163122
000210 77 40 ae 3c 0d 99 ed 3c dd 86 2d 3b 71 6b 01 bc
       0.021270974 0.029003644 0.002647809 -0.007899151
000220 bc e8 9b 3b e6 9b 80 39 24 a6 ae 3a 77 76 e8 b9
       0.0047579687 0.00024530216 0.001332466 -0.00044338751
000230 9e 52 31 3c cc 72 8b 3c 56 c2 6d 3c 4b 0c 7c 3c
       0.01082292 0.017022513 0.014511665 0.01538379
000240 ce f9 ed bb f1 e9 b9 bc 41 a8 85 bc 88 c4 56 bc
       -0.007262445 -0.02269456 -0.016315581 -0.01310838
000250 39 53 6f 3c 37 90 aa bb fc 1a 0f bc 84 ce 44 3c
       0.014607244 -0.00520518 -0.008734461 0.012012128
000260 bf 1e 8a 3c 03 38 db 3c 21 69 5f bb 0e bb d2 bc
       0.016860364 0.026760107 -0.0034089761 -0.02572396
000270 33 95 84 3c e1 6a 61 bc fb 97 9c 3c c2 05 58 bc
       0.016184425 -0.013758392 0.019115439 -0.0131849665
000280 54 36 83 bc 97 ea ba 3c 97 4b ce 3b dd 7a 49 bc
       -0.016017117 0.02281694 0.006295632 -0.012297359
000290 2c bb 94 bc 98 ef 71 3c 73 7f fa bb 5c e2 c7 3a
       -0.018155657 0.014766596 -0.0076445877 0.0015249955
0002a0 32 6b 5c bc 0f 8f ea bb f2 b0 7d bc 16 1f de ba
       -0.013453292 -0.007158167 -0.015484082 -0.001694652
0002b0 e7 54 85 3c fa 89 a4 bc 31 9c cb bb 22 53 6f 3b
       0.016275836 -0.020085324 -0.006213688 0.0036518057
0002c0 6f 37 af 39 98 07 aa 3c af 35 de 3c f2 c0 5d ba
       0.00033419902 0.020755574 0.027125208 -0.0008459232
0002d0 74 ec 78 3a 12 09 7c bb 5c 7f 84 bc 59 29 b8 3c
       0.00094956835 -0.0038457555 -0.016174011 0.022480654
0002e0 04 41 99 bc 17 3e 9d 3c e9 9e 34 3c 5e bf e3 bc
       -0.01870776 0.019194646 0.011024215 -0.027801212
0002f0 f2 08 1c bc 5b ec f0 3c 34 99 bb bb 4d 7d 89 bc
       -0.009523617 0.029409578 -0.0057250503 -0.01678338
000300 9e 45 0c 3b ad 81 c8 3b f9 84 9e 3c 81 10 85 3c
       0.00214038 0.006118974 0.019350516 0.016243221
000310 f1 f7 ff 3c c2 bf 8d bc fd df 63 3c 24 2b a3 bc
       0.031246157 -0.017303351 0.013908383 -0.019918032
000320 b4 59 9b bc c5 16 96 bc 63 db 79 3c e8 43 59 3c
       -0.018963672 -0.018321404 0.01525006 0.013260819
000330 1f 54 dd bc 8e 2d d3 bc 0d f9 83 3b 4c f5 80 bc
       -0.027017651 -0.025778558 0.004027492 -0.015741967
000340 bb f3 fe 3c f6 93 92 bc 56 41 64 bc e8 97 e6 3c
       0.03112208 -0.017892819 -0.013931593 0.028148606
000350 e9 87 ab 3c 04 85 d2 bc ea 95 7b bb ae 9f 82 bc
       0.02093883 -0.025698192 -0.0038388916 -0.015945282
000360 db 64 67 bc 7d 27 f8 3a dd 68 a1 3a 2c 4c 70 3c
       -0.014123167 0.0018932667 0.0012314577 0.014666598
000370 20 ad 6c 3c fa 50 0b bb 44 25 b4 3c 42 94 7a bc
       0.014445573 -0.0021257983 0.021990426 -0.0152941365
000380 90 74 0b bc 8a 02 fd 3c 2a c8 87 bc 46 a6 81 3b
       -0.008511677 0.030885 -0.016574938 0.003956589
000390 97 1f b3 bb 84 6b 00 3d de 4d fc ba 06 13 b4 bc
       -0.0054664123 0.031352535 -0.001924928 -0.021981727
0003a0 19 a5 8e 3c 7b 63 19 bc 10 89 98 bb da 3c 6f bc
       0.01741271 -0.009362097 -0.004655011 -0.0146019105
0003b0 88 36 b1 bc 5f d5 87 3c 90 f6 16 3c 3a 17 90 3c
       -0.021632448 0.016581235 0.0092140585 0.0175892
0003c0 d8 b3 91 3c 81 e8 4d 3c c9 a4 ab 3c b2 7f 79 bb
       0.017785951 0.01256764 0.0209526 -0.0038070497
0003d0 e9 26 dc 3b 2e 48 96 bc 37 2c c0 bc 6a d4 14 3c
       0.0067185056 -0.018344965 -0.023458583 0.009083847
0003e0 06 9a c1 3b 19 70 19 bc 67 49 66 bc b3 85 da 3c
       0.0059082536 -0.009365105 -0.014055586 0.02667508
0003f0 f3 c9 f2 3c fb ff 8f bc 65 6f fa 3b 2c 22 4a 3b
       0.029637313 -0.017578116 0.007642674 0.0030843122

classifier.bias f4 [10]
000000 42 c9 12 3b db 78 b2 bc a0 2a c0 3b 6b bd 5b bc
       0.002239779 -0.021786144 0.0058644563 -0.01341186
000010 71 08 dd 3b 28 6d 84 bc 2f bc 3d bc 44 6b 9a bb
       0.006745391 -0.016165331 -0.011580511 -0.004712494
000020 28 74 c8 bc 80 5f 4a b9
       -0.02446945 -0.00019299798
